Muscle Data/model.ckpt (torch, 4956 bytes, 10 tensors)

rnn.weight_ih_l0 f4 [10, 1]
00000000: c8b9 24bf 28c8 343e 219b 083f 97ce 483f
00000010: 56d7 db3e 44e3 0ebf 1246 1fbf af88 d83e
00000020: fa1c 463f 7335 05bf
-0.6434598 0.17654479 0.5336171 0.7844023 0.42937726 -0.5581553 -0.62216294 0.4229178
0.77387965 -0.5203468

rnn.weight_hh_l0 f4 [10, 10]
00000000: 0da9 aa3e e91d 083f 9ee7 123e fe54 fdbe
00000010: 70cc ebbc 1814 4abe 260e f73d 7fb0 de3e
00000020: dcaf 09bd 6b90 a03e 12fb 2c3e 9d3f be3d
00000030: 4902 22be 4095 013e ed25 8dbe 3390 a73e
00000040: e84b 8a3e b25d 0fbe bace 73be 2058 76bd
00000050: 2259 e43c 54a2 a2be 9427 aa3a da08 903e
00000060: 1705 43be a91c 7e3b 3941 633e 1dbd 63be
00000070: 31dd 91bc 6a37 03be 7a0e 3c3d f088 43be
00000080: 66f9 a43c 734c 233d d682 393d 6c6a 9ebe
00000090: db87 31be 7eed ebbd 14a0 37bd 9762 51be
000000a0: 9056 f3bd f85b aabd 5bbf 393c d02e 03be
000000b0: a425 f03c 7ec4 8dbd 046f 99be a595 90be
000000c0: 72c6 a63e 486f b4be 8c34 733e 4828 113e
000000d0: 7e0e c43d 300e 60bd 7365 08be e203 30be
000000e0: cb2c 1c3e 23a2 d4bd c8b6 b5be 340b ae3e
000000f0: f0e9 f0bd d896 6d3e 6dab 2f3e a8f8 1c3e
00000100: 347a 95be e884 f23d 99d4 1e3e 35e7 af3e
00000110: f1a1 f63d 5888 34bd 3c39 a03d 53fc b13e
00000120: f280 36bd 95d1 18be 6d83 083e 8568 bc3e
00000130: 7d35 f0bd 371f cf3e 3147 303e fafc 4ebe
00000140: 7f66 c6be 4392 a8be 7181 753e c838 da3d
00000150: 9a34 043d 6984 07bc f73d 0a3e 0416 0bbe
00000160: 6623 2e3e 785f bb3c 6ee0 433e 3f04 05be
00000170: 4ab6 0e3d 5528 8ebe cf4d cfbe b245 bb3e
00000180: 9d6f 6dbd 53a8 e73e 081a d0be 79d0 9b3e
0.333321 0.5317064 0.14346167 -0.49478906 -0.028784007 -0.19734228 0.120632455 0.4349403
-0.03361498 0.31360182 0.1689265 0.09289477 -0.15821184 0.1265459 -0.27567998 0.32727203
0.27011037 -0.14000586 -0.23809329 -0.060142636 0.027874533 -0.31764472 0.0012981766 0.28131753
-0.1904491 0.0038774407 0.22192849 -0.2224011 -0.017805668 -0.12814108 0.045912243 -0.19095206
0.020138454 0.03986783 0.04529079 -0.30940568 -0.17336981 -0.115199074 -0.044830397 -0.20447765
-0.11881745 -0.08318323 0.011337127 -0.12810826 0.029314823 -0.069222435 -0.2996751 -0.2823917
0.32573277 -0.3524115 0.23750514 0.14175522 0.09573077 -0.05470103 -0.1331995 -0.17188981
0.15251462 -0.103824876 -0.35491014 0.33992922 -0.1176337 0.23202074 0.17155237 0.1532923
-0.29194796 0.11841756 0.15510787 0.34356084 0.120426066 -0.04407534 0.078234166 0.3476282
-0.044556566 -0.14923699 0.13331385 0.36798492 -0.11728952 0.40453503 0.17214657 -0.2021369
-0.38750073 -0.3292409 0.23975159 0.106553614 0.032276727 -0.008271315 0.135002 -0.13582617
0.17005691 0.022872671 0.19128582 -0.12989901 0.034841813 -0.27765146 -0.4048905 0.3657661
-0.05796777 0.4524561 -0.4064486 0.3043249

rnn.bias_ih_l0 f4 [10]
00000000: c1cf 093f 199c 9e3e 5872 803e ebe6 dabe
00000010: d70c ebbd c732 b93e 05f1 a43e 42f7 d63e
00000020: 13c7 7fbe 9868 913d
0.5383263 0.30978468 0.25087237 -0.427543 -0.114770584 0.36171553 0.32215133 0.41985518
-0.24978285 0.07100028

rnn.bias_hh_l0 f4 [10]
00000000: 423c e53d a886 2d3e 31f1 a2bd b18e 10be
00000010: fc6e a0bd 4221 c9bd 4b75 953e a4c1 433e
00000020: 69e8 95be 3971 62bc
0.11193134 0.16945899 -0.0795616 -0.14116932 -0.078336686 -0.098207965 0.2919105 0.19116837
-0.29278877 -0.01382094

rnn.weight_ih_l1 f4 [10, 10]
00000000: ecb2 653f 57a2 f9bd 22f0 f2be 08f3 61bf
00000010: 4dc6 50bf 36cf 833f 39b5 7a3f a159 143e
00000020: 0eec a6bf 4f97 3e3f 657f 81bf 3e4e 493d
00000030: 5adf 01be 5580 193f 8c71 743f 483f 4abf
00000040: b1eb 2cbf 1d93 63be 50ab 333f e8df 9fbf
00000050: 4e92 74bf c5b0 5f3e f513 25be 560a d33e
00000060: e6b0 363f 28b6 dabe d86c 2bbe fd9b f6bd
00000070: 4e22 3b3e d275 a8bf e176 30bf 44cf 763e
00000080: eaca 1a3f ed34 593f e386 153f 583c 8ebf
00000090: 087b 69bf 3301 eb3e 5fae 823f e507 07bf
000000a0: ad84 50be 7d16 953c 1528 773e 7421 243f
000000b0: 1b63 133a c8c1 4cbf 9a44 48bf 8fa8 e33e
000000c0: f256 d53e cc05 debe 8cb1 83be e8b9 103e
000000d0: e8db d03e a6bb ef3e 7643 f33e 4994 e7bd
000000e0: d3f9 c3be d1e2 943e b82c 203f f3c6 b5be
000000f0: 7d8a 103f df58 70be 1b04 d7be 6bba 5ebf
00000100: 7ac3 15be 7ef4 8f3f 85d9 8f3f e139 7fbe
00000110: d936 80bf 86e5 f03e 08a2 5dbf 6915 c03d
00000120: b945 c13d 402d 833f d106 293f 1770 8ebf
00000130: 3d80 63bf 7b9b 3a3e 99f6 683f 2b56 02bf
00000140: a3b2 ae3f 1e2f 6e3c 6775 9b3e aaf7 27bf
00000150: f622 82bf 900a 6f3f 5d9b 863f 9c03 793e
00000160: d786 8ebf 65f7 813f a1fc 563f 7e8d d73e
00000170: 2976 04be 7b6f 33be 2f5a 69bf 23c2 413f
00000180: 0a4d 963e 3eae cb3e 2713 87be 864c 823f
0.8972614 -0.12189167 -0.47448832 -0.8826146 -0.8155258 1.0297611 0.97932774 0.14487316
-1.3040788 0.7444963 -1.0117003 0.049146883 -0.12682858 0.59961444 0.9548576 -0.7900281
-0.67547137 -0.22224088 0.7018328 -1.2490206 -0.95535743 0.21844776 -0.16120894 0.41218823
0.71363676 -0.427171 -0.1674074 -0.12041471 0.18274805 -1.3160956 -0.68931395 0.24102503
0.6046587 0.84846383 0.58408946 -1.1112165 -0.91203356 0.45899352 1.0209464 -0.5274642
-0.20363112 0.0181992 0.24136384 0.64113545 0.0005622373 -0.79983187 -0.7822968 0.44464538
0.41667897 -0.43363798 -0.25721395 0.14133418 0.40792775 0.46822852 0.47512406 -0.1130758
-0.38276538 0.29079297 0.62568235 -0.3550335 0.56461316 -0.23471402 -0.4199532 -0.870032
-0.1462535 1.1246488 1.1238257 -0.24924423 -1.0016738 0.47050112 -0.86575365 0.09379084
0.09437127 1.0248184 0.66026026 -1.1127957 -0.8886755 0.18223374 0.9100128 -0.5091273
1.3648266 0.014537601 0.30363008 -0.6561228 -1.0166919 0.9337549 1.0516163 0.24317783
-1.11349 1.0153624 0.8397923 0.42100137 -0.129357 -0.17522995 -0.91153234 0.75686854
0.2935565 0.39781374 -0.263818 1.0179603

rnn.weight_hh_l1 f4 [10, 10]
00000000: 057a 4abe 4afe a5bc e8da 11be 14e5 1abc
00000010: 0823 623d cab1 e23d f0e5 cb3c 200a b93d
00000020: 9f4f 823e e40e 073e 63ba b03d 6df4 4c3d
00000030: 053e 8f3e ed74 e03e 9025 fcbd fd5b acbe
00000040: 658b e1bc a294 393e 76e8 79be 0c2f 8dbe
00000050: 218e f9bd 7513 983e 9fca bc3e f644 653e
00000060: a5ec 86bd b6b7 30be a99c dcbd aefc 373d
00000070: 57ac c1be 0146 64be ad26 81be abb6 8fbe
00000080: 79c6 0dbe 5126 ccbe 9b2b 293d d1b8 6e3d
00000090: b840 d5bb 85cf 3fbe 0aa0 683e 0500 803e
000000a0: f5df 3c3e 5bea 99be 399a c13d 979e 6a3e
000000b0: 6b35 3abe 8eec 413a 6ae7 45be 8d40 b2be
000000c0: f1b6 95bc 254b 23be 09a3 00be fb94 92be
000000d0: 7b60 283e 5511 213c 99d8 b43e d1ec 17bd
000000e0: dc11 67bc 24cd a6bc 4d8b 893e ec7d 423e
000000f0: f7ed 633d 3403 683e 2f59 643e d27e fe3d
00000100: ae73 d73c 6065 4e3c 3750 04bf bc1e 9b3e
00000110: 4b14 993e 55c8 50bd a41e 3abe d21d b43e
00000120: a360 083a 9686 6f3e 44fd 95be 5443 40be
00000130: 50ee 7d3e 218a 9a3e 1afc c33c 8a37 823d
00000140: 0efe 6a3e cb63 9dbe b17b ddbe 1e0c b43d
00000150: 7077 ac3e 42e2 d63d c3ee cabd a996 36bd
00000160: fdc8 743e 86fc b23e 619d fa3e 4634 be3c
00000170: 89ec 02bf 587a 123e 232c c1bc ed82 173e
00000180: e187 89bd 78d8 7cbe b242 013f 2037 37bd
-0.1977311 -0.020262856 -0.14243662 -0.009454031 0.05520919 0.11069067 0.024889916 0.09035134
0.2545137 0.13189274 0.086293004 0.05003779 0.27977005 0.43839207 -0.12311852 -0.3366393
-0.027532289 0.18123105 -0.24405083 -0.27574956 -0.12185312 0.29702345 0.36873338 0.22389588
-0.06588105 -0.1725758 -0.10772068 0.04491871 -0.37826797 -0.2229233 -0.2522482 -0.28069052
-0.13845243 -0.39872983 0.04130135 0.058281723 -0.006507959 -0.18731506 0.227173 0.25000015
0.18444808 -0.30061612 0.09453244 0.2291206 -0.1818444 0.0007397615 -0.19326559 -0.34814873
-0.01827571 -0.15946634 -0.12562193 -0.28629288 0.16443054 0.009830792 0.353215 -0.03709108
-0.014103379 -0.02036149 0.2686409 0.18993348 0.055646863 0.22657472 0.22299646 0.12426533
0.026300278 0.012597412 -0.516849 0.30296886 0.29898295 -0.0509723 -0.18175751 0.35179
0.0005202388 0.23391184 -0.2929479 -0.18775684 0.2479794 0.3018351 0.023923922 0.063582495
0.22948477 -0.30740198 -0.43258432 0.08791374 0.33684874 0.10492374 -0.099088214 -0.044577274
0.23904796 0.34958285 0.48948196 0.023218285 -0.51142174 0.14304483 -0.023580616 0.14796038
-0.0671537 -0.24691951 0.50492394 -0.044730306

rnn.bias_ih_l1 f4 [10]
00000000: 8b4c 87be a13a 68be 7315 a6be dc24 bc3e
00000010: 6571 d13e a1d1 433e 1991 88be 46a0 273d
00000020: 61a1 5e3e 5fbe a13e
-0.26425585 -0.22678615 -0.3243824 0.3674687 0.40906826 0.19122936 -0.266732 0.040924333
0.21741249 0.31590554

rnn.bias_hh_l1 f4 [10]
00000000: 0462 a13e 4de0 c2be 9793 b0be dbff 433e
00000010: 25bb 2f3c 4f1d 813e 897e 05be 9142 34be
00000020: 7867 a43e dbac 9a3c
0.31520092 -0.38061753 -0.34487602 0.1914057 0.010725771 0.25217673 -0.1303655 -0.17603518
0.3211019 0.018881252

fc.weight f4 [6, 10]
00000000: 637e 1e3e cd91 e33d 2d07 403f f3eb 12bf
00000010: aab9 42bf 5c1f 44bf 9193 a83e 6a08 e03c
00000020: 5e7a 05bf 5e62 33bf b227 523f d305 e6be
00000030: f4a3 c5be c11f 48bf a123 65bf 95e2 bebe
00000040: 24ff 8f3f 3806 3bbf 6f20 943e 5ed4 383e
00000050: 3b3a 9d3f 92ac d7be b176 0f3e c0cd 423f
00000060: 3924 d03e d990 cc3d 4066 23bf a121 97bf
00000070: 2c19 033f 76b3 803e c68c 7ebf 3348 78bf
00000080: cdb4 f23c a86d 893e 8dd2 663d cc37 783c
00000090: 2f96 8cbe 0bbb 103f 06e8 753f 073d ca3d
000000a0: 5340 fcbe d620 243f 046a 5dbd b7e8 aa3c
000000b0: ba97 cfbc 4f0b 7a3e 9ae6 07bf 566d 1e3f
000000c0: 53e2 cbbe ba60 823d c568 cbbe b8ae a23f
000000d0: 0498 0a3f eb82 8c3e c14b 923e 6269 14be
000000e0: b646 a0be 9406 233f 3161 12bf 7bea 78bf
0.154779 0.11111794 0.7501095 -0.5739128 -0.7606455 -0.7661035 0.32925084 0.027347762
-0.5213984 -0.7007197 0.8209182 -0.4492632 -0.3860165 -0.7817345 -0.8950749 -0.37282243
1.1249738 -0.73056364 0.28930995 0.18049762 1.2283396 -0.42123848 0.14010121 0.760952
0.40652636 0.09988565 -0.63827896 -1.1807138 0.51210284 0.25136918 -0.99433553 -0.9698517
0.029627228 0.26841474 0.05635314 0.015150022 -0.2745833 0.56535405 0.96057165 0.09874921
-0.49267825 0.64112604 -0.054056183 0.02086292 -0.025340904 0.24418376 -0.53086245 0.61885583
-0.3982111 0.063661054 -0.3972837 1.270957 0.5413821 0.27443632 0.2857342 -0.14493325
-0.31303948 0.6368191 -0.5717955 -0.9723279

fc.bias f4 [6]
00000000: 145f 71be caf1 5f3e a177 c7bc 7dcd fa3d
00000010: cada 1a3e a110 6abe
-0.23571426 0.21869579 -0.024349036 0.12246225 0.15122524 -0.22857906
